model.pth (torch, 52684 bytes, 15 tensors)

embedding.weight f4 [102, 32]
00000000: bef4 c7bd 767b 9d3e 9aa0 4040 9219 e73e
00000010: fe1a 463f a067 afbe 012e 83be 4805 77bf
00000020: 7c1b e23e 3db1 0fbf c3d1 2dbf b396 b73e
00000030: c1dd 843e 95ed 963f ec0f 33bf df7d 92bf
00000040: 1e9e 32c0 5dba 9c3e 403f 5fbf c0c2 d1bf
00000050: 22c3 f23f 7db0 0240 5217 2abf 2984 efbf
00000060: 3dda 3a3f 6246 6cbf b0e0 babe d44c 59bf
00000070: 1974 eabe 19ab 8f3e 3e3d 25bf 7fa4 2d3f
00000080: 37bb 483f 7a4d e53e 55d7 933f 2ded 7b3f
00000090: 9a4d 813e 55b9 a9bb 5181 58bf 8487 883f
000000a0: 838f a13f f929 9fbc 731c 113f 60ad da3f
000000b0: b19f 243d e474 913f 0424 41bf 96d5 4d3b
000000c0: 4967 513e d42e bf3f 3473 573f b324 413d
000000d0: 8e2b 0d3f 6aba fa3e fcb7 4f3e 4473 483f
000000e0: 7066 573f 13dc 363f bd5b bc3e 1861 ddbe
000000f0: 0b08 c5bf 4587 59bf 06a6 1f3e 5a31 80be
00000100: bdbd d83e 1276 a73d 25f6 603f 1390 19bf
00000110: c820 63bf 79a9 943f 7f87 873f dd0d a8bd
00000120: d43c 1c3f d3f6 bebf fc25 8fbf 3de3 263e
00000130: 776d 263e 64f6 ba3d 1652 9a3e 4ffc 2b3b
00000140: a245 3e3f 6cba 7ebe f5e4 b2be 9eb4 bb3f
00000150: 3dbb 83bf 3e0f 213f e2a4 6dbf ddac 4e3f
00000160: 08de fbbf 8fc7 a13e 4367 dabe 4224 85bf
00000170: 766c d33e 9498 d6bf 93f5 8a3e 6258 a93e
00000180: 071a 93bf 4df6 a2be 90a1 8f3e 4841 f0be
00000190: 619d 063f 206d 1cbf 496c 17bf 422a 0d3e
000001a0: 2415 7fbf c2be 38c0 f5b6 823f 0ec0 debe
000001b0: e930 1cbf fc6a 45bf bd88 14bf a309 17bd
000001c0: d79d 973f 41ac 29bf 4d24 5a3f 4642 17c0
000001d0: 14f0 d23d 82a2 a43b 4822 73bf 716c 02bf
000001e0: 23bb 393f 5fed 5b3f 35f3 343f 5fec 4240
000001f0: fae5 913e 215a a23f 37f4 57bd d94d ce3d
00000200: 3147 6a3f 3d0d a8bf 585b e6be 50b1 263e
00000210: ac13 14be 3467 163e 27a7 26be 4919 11be
00000220: 8891 8a3f 25b2 93bd 2f36 b1bf 8771 5a3e
00000230: 5ffc d8be 6575 abbc 00f9 65be 9387 9d3f
00000240: a12f 51be 6b0a 2340 4817 923e 8259 f23e
00000250: 485b 1dbf a95e 1cc0 c47e 0dbf 3908 acbe
00000260: 5c23 0c40 dd68 5a3f 067d abbe 7890 91bf
00000270: ee28 37be 47bc ad3e 690b d13f 133e e93f
00000280: e1a8 69bd 125e e1bf 33a4 c23e 9532 e7bd
00000290: 38a5 55bf f181 c83f 19a0 a8bf 6e97 ad3e
000002a0: 7342 26bf dcdc dcbf 59e5 e53f cf39 bf3f
000002b0: 53a3 3a3f 7bb5 d7be b382 623e f9ab f7be
000002c0: b915 90bf abe1 d0be cbeb fa3f 8c76 5c3d
000002d0: 2b60 d33e 790d 1fbf dd91 a1bf 770a 4140
000002e0: ca43 53bd dcd1 75bf 61a2 9a3e 1c27 083f
000002f0: a989 1cbf 053f cfbe aa19 e73d 2d14 8dbe
00000300: 4234 32c0 ebfc f7be 4b6d 07be acb1 02bf
00000310: c946 06be 1dc3 5a3f 8245 963f 7794 953e
00000320: 5a38 e5bd 6d1d 15be b1de 87bf 5bed 033e
00000330: b79a 01bf a0c1 d6be 1b20 9d3f 7733 93bf
00000340: bc54 53be 541c 3bbf 967c aa3e 8d57 13bf
00000350: 97a2 2a3f c954 eebd efd0 8f3f 1c49 dc3f
00000360: baa1 623f f219 8abd b39d fc3d 2e37 cfbf
00000370: d417 8538 af79 36bd d0c7 46bf 8f97 49bf
00000380: 9894 403f 6f96 3f3d 3b42 babf eab7 aabe
00000390: 9ca5 913e 576f eb3e fd34 39bf 33b8 83bd
000003a0: a2ac 0abf 3b88 4dbe 1e50 653c ef4b f03e
000003b0: 2d38 a13f c911 02bd 60bf 413e 9fe7 fc3e
000003c0: 26c5 b2bf bbec 633e 18df c83e db89 94be
000003d0: 6d31 243f 3d99 8cbd e2b8 a53f b6e4 f8bf
000003e0: af64 5f3f c99e f33e 9dc8 183e 7a7d 84bf
000003f0: 823c 98bf a599 45be 1afd 93bf 5f76 39bf
-0.09763478 0.30758256 3.0098023 0.45136696 0.77384937 -0.34258747 -0.25621036 -0.96492434
0.44161594 -0.5612982 -0.67898196 0.35857162 0.25950435 1.1791254 -0.6994617 -1.1444663
-2.7909007 0.30610934 -0.87205887 -1.6387558 1.89658 2.042022 -0.66441834 -1.8712207
0.72989255 -0.92294896 -0.36499548 -0.84882855 -0.457917 0.28060225 -0.64546573 0.67829126
0.7841067 0.44785672 1.1550089 0.98408777 0.25254518 -0.005179564 -0.8457232 1.0666356
1.2621921 -0.019429194 0.56684035 1.708416 0.040191356 1.1363797 -0.7544558 0.0031407825
0.20449556 1.4936166 0.8416016 0.04715414 0.55144584 0.48970348 0.20285028 0.7830088
0.8414068 0.71429557 0.3678874 -0.4323814 -1.539308 -0.8497203 0.15590677 -0.25037652
0.4233226 0.08176817 0.87875587 -0.59985465 -0.88721895 1.1614219 1.0588225 -0.08205769
0.61030316 -1.4919075 -1.1183467 0.16297622 0.16252695 0.091290265 0.30140752 0.0026242917
0.74325 -0.24875802 -0.34940305 1.4664495 -1.0291516 0.6291388 -0.92829716 0.8073252
-1.9677134 0.31597564 -0.42656907 -1.040169 0.41293687 -1.6765313 0.27140483 0.33075243
-1.1492318 -0.31828538 0.2805295 -0.46924806 0.5258389 -0.6110401 -0.59149605 0.13785651
-0.99641633 -2.886643 1.0212084 -0.435059 -0.6101213 -0.7711637 -0.58021146 -0.036874425
1.1845044 -0.66278464 0.8521164 -2.36342 0.102996975 0.0050242553 -0.94974184 -0.5094672
0.7255117 0.85909075 0.70683604 3.045677 0.2849577 1.2683755 -0.052723136 0.10073442
0.9151488 -1.312904 -0.44991565 0.16278577 -0.14460629 0.14687806 -0.16274701 -0.14169802
1.0825663 -0.07211713 -1.384466 0.2133237 -0.42380044 -0.020930002 -0.22458267 1.2306999
-0.20428325 2.5475109 0.28533387 0.47333914 -0.6146741 -2.4432776 -0.55271554 -0.33600023
2.1896582 0.8531626 -0.33493823 -1.1372213 -0.17886707 0.33932707 1.6331607 1.8222069
-0.05704582 -1.7606833 0.380159 -0.11288945 -0.8345523 1.5664655 -1.3173858 0.33904594
-0.64945143 -1.7254901 1.7960616 1.4939517 0.72905463 -0.42130646 0.2212017 -0.48373392
-1.1256629 -0.4079717 1.9603208 0.053823993 0.41284308 -0.6212993 -1.2622639 3.0162637
-0.05157832 -0.96023345 0.3020201 0.53184676 -0.6114755 -0.40477768 0.11284192 -0.27554455
-2.7844396 -0.4843515 -0.13225286 -0.51052356 -0.1311294 0.8545397 1.1739962 0.29214832
-0.11192389 -0.14562006 -1.0614835 0.12883513 -0.506267 -0.419446 1.2275423 -1.1500081
-0.20637792 -0.730901 0.33298177 -0.57555467 0.6665434 -0.11637265 1.1235636 1.7209811
0.88528025 -0.0674323 0.12334766 -1.6188715 6.3463725e-05 -0.04454964 -0.7764864 -0.78746885
0.75226736 0.046774324 -1.4551462 -0.3334344 0.28446662 0.45983383 -0.7234648 -0.064316176
-0.54169667 -0.20071499 0.013996152 0.46932933 1.2595268 -0.031755242 0.1892066 0.49395463
-1.3966415 0.22258274 0.39232707 -0.29011425 0.6413792 -0.068651654 1.2947047 -1.9444797
0.87263006 0.4758208 0.14920278 -1.0350792 -1.1893466 -0.19296892 -1.1561615 -0.72446245

transformer.layers.0.self_attn.in_proj_weight f4 [96, 32]
00000000: 64d7 ddbb c279 53be 47a6 9e3d ef23 093e
00000010: 4f42 0abe 60af ca3d a2a6 60bd 71cc 38bd
00000020: 16c5 513d c6da 2b3e 80cc fdbc 591b 50be
00000030: 9fa2 083e c227 77be 8600 64bc 3fed 083e
00000040: 023b 2f3e ddea b8bd 2f17 94bd 7833 5a3e
00000050: 1891 74be 3149 efbd 0b49 023e b5c2 02bd
00000060: 3306 32bd 8db2 8abc 028e f63d 88a3 cc3d
00000070: 2d07 983e 9ea1 29be 9d7f 913d 2903 7abd
00000080: f4af dd3d 1ca0 d23d d7ba 1abe 9ee6 ecbd
00000090: 927f c9bd c25b 693c c0f2 a43d e3a5 913e
000000a0: c4c3 c33d 8348 c0bd 71b7 f7bd 1ac7 e13b
000000b0: 7cb6 e73c 9491 6ebd 2c80 133e 48e5 663e
000000c0: 8566 1e3e 6631 11bd 74df 0e3e af34 8d3e
000000d0: 0c33 1fbd 21da 44be 54ea 04bd 35d6 c9bc
000000e0: a987 33be 3e89 ae3d c771 b1bd 696d eebd
000000f0: a15e cb3d 12ad 66be 0438 8f3e 438f e43d
00000100: c8ad f9bd 322f 6c3c ebcc 9cbd c647 97bd
00000110: d8e0 c9bd 15cb 00be 63bb ba3d bd79 543e
00000120: 0d90 7f3d 612f 06be 2cf3 cebd e1ec 54be
00000130: 0935 debc f952 dcbd 976a 65bd 00b9 87bd
00000140: 6c27 cf3d f2c8 833b 8f87 3a3e 3498 16be
00000150: 499b 70be c75d 22be daa3 4d3d c5e5 763e
00000160: 411b 57bd 164a e9bc 7ffc 283c d732 7e3e
00000170: 253f f03c 4e8d 84be 5ae9 5d3c 3d17 e6bd
00000180: e391 16be 4ab3 843d 0e45 183d bc75 f2bd
00000190: b83d 07be ec78 d73a 6bc8 89bd c2cc f23d
000001a0: bffc 9abd 74e2 77be 88bd f1bc 3029 0cbe
000001b0: e711 893e f32c e33d 1164 f7b9 ba0e c5bd
000001c0: 3044 a1bd 1877 023e 7688 97bd fad8 39be
000001d0: ad4a 053e 0c45 823e f9a1 1b3e ea29 05be
000001e0: 55e5 7f3e 17e5 c9bd 15a9 84be dcb8 9b3d
000001f0: a821 5abe 212d e4bd 1f86 dbbb b807 3f3e
00000200: f4d3 603e 9c06 3c3e 2cee f83c 46ac 243c
00000210: 181a e33d d620 20be 3671 ad3d 8720 2abd
00000220: 9f86 d13d 290b 89bd c541 4e3d 7aff 293e
00000230: bb0c 48be fc06 43be 6e30 d23d 8995 49be
00000240: d8f2 d0bd 9ab0 453d 5aab a0bd 6a49 2b3d
00000250: 001c 053e a19c d23d 15ca ac3c e52a ae3d
00000260: 81c2 2fbd 733c 063d b213 e3bd aceb 563e
00000270: ccde fc3d fb91 893d 3b7b 3f3e 314d 583e
00000280: 06f7 613e 757d d2bd d544 433e cb06 a93d
00000290: 8b11 183e a6ae 58be 5658 09be 5ad7 7c3d
000002a0: 029f 99bd 1fe2 8b3d 6fde 083e fdf5 733e
000002b0: e89e 803e bd10 5f3d 1708 8a3d fb54 da3c
000002c0: ef42 70be 6c34 133d aa69 52bc a32b fdbc
000002d0: 8252 e53c f809 4a3e c604 fbbd 2b33 eebd
000002e0: f845 21bd f8f3 133e 901d babd 3f34 92bd
000002f0: 8e09 123e a3b1 833e 7db4 aebd aeac 28be
00000300: aec8 50be a388 78bd 24b9 44bd d5bf 3abe
00000310: 511b 08be fa27 1dbd ed74 603e 1009 4a3e
00000320: 873d 313e c1c5 2b3d 0868 573d 0b5d 3bbe
00000330: 4e9f 943d f4b9 6f3d 97f1 8d3d 895f 40bd
00000340: c74f 03bd b61f 4f3e d07f 37be 9227 dcbd
00000350: 8661 1f3e 5bee 0f3e 43ea 1b3d 21e9 51bd
00000360: b441 71bd 3f9d 3d3e 745e 7e3e b4cf 7f3d
00000370: aed6 993b b2d7 efbd d962 573c 9869 c0bc
00000380: 8e62 0cbd 6d47 ddbd 4f55 8a3d c7ce 663d
00000390: e1ef 89bd 6912 2cbe 2ea4 b13d ae56 b0bd
000003a0: 16c1 673e 216b 3cbe acac 5bbc cdbf b9bd
000003b0: ccb8 1ebe 92b8 553d 018c abbc 1ea3 103e
000003c0: a607 a63d e309 ea3d ca21 7c3c 7b97 303c
000003d0: 031b 4c3e c5c7 793e 1218 f43d b0e4 37be
000003e0: 6f7f 33be 46f4 b2bb cd17 d0bc a9bd 3abd
000003f0: ffce bcbc 84dc 1e3e 1082 1d3e 3f7c 6c3e
-0.0067700613 -0.20651916 0.07746559 0.13392614 -0.13501857 0.098967314 -0.054846413 -0.045116846
0.051213346 0.16782674 -0.030981302 -0.20322932 0.13343285 -0.2413626 -0.01391614 0.13371752
0.17112353 -0.090291716 -0.072309844 0.21308696 -0.23883474 -0.11683882 0.12723176 -0.03192397
-0.043462943 -0.016930843 0.120388046 0.099921286 0.29692975 -0.16565558 0.071044184 -0.06103817
0.10824576 0.10284445 -0.15110336 -0.11567424 -0.09838785 0.014243068 0.080541134 0.28446874
0.09558824 -0.093888305 -0.120955355 0.00689019 0.028285258 -0.058244303 0.14404362 0.22548401
0.15468796 -0.0354475 0.13952428 0.27579257 -0.03886704 -0.19223835 -0.032450035 -0.024638275
-0.17532219 0.085222706 -0.086642794 -0.11641962 0.099301584 -0.22526959 0.27972424 0.111601375
-0.12191349 0.014415549 -0.076562725 -0.073867366 -0.09857339 -0.1257747 0.091177724 0.20749564
0.062393237 -0.13104011 -0.10104975 -0.20793487 -0.027124899 -0.10758013 -0.056009855 -0.06627083
0.10114941 0.0040217573 0.18215774 -0.14706498 -0.23496737 -0.15856086 0.05020509 0.24111088
-0.052516226 -0.02847771 0.010314106 0.24824081 0.029326985 -0.25889057 0.013544405 -0.11234901
-0.14704089 0.06479509 0.03717523 -0.11838862 -0.13207138 0.0016439236 -0.0672768 0.11855461
-0.07567739 -0.24207479 -0.02950932 -0.13687587 0.2677147 0.11092558 -0.00047186067 -0.096219495
-0.07874334 0.12740743 -0.07399075 -0.18149176 0.13016768 0.25443304 0.15198506 -0.1300427
0.24989827 -0.098581485 -0.2591025 0.076036185 -0.21301901 -0.1114142 -0.006699338 0.18655288
0.21955854 0.18361896 0.030387007 0.010050839 0.11088961 -0.15637526 0.08468859 -0.041534927
0.10230755 -0.06691582 0.05035569 0.16601363 -0.19536106 -0.19045633 0.102631435 -0.1968595
-0.10202569 0.048264123 -0.07845183 0.04181806 0.12998962 0.10283781 0.021092454 0.08504275
-0.042910103 0.032772493 -0.11087741 0.20988339 0.12347183 0.06717297 0.18699352 0.21123196
0.22066888 -0.10277835 0.19069226 0.08253249 0.14850442 -0.21160373 -0.13412604 0.061728813
-0.075010315 0.068302386 0.13366102 0.23824306 0.25121236 0.054459322 0.06739824 0.02665185
-0.23463033 0.035938665 -0.012842575 -0.030904597 0.027993444 0.19730365 -0.1225677 -0.11630853
-0.039373368 0.14448535 -0.0908767 -0.071388714 0.14261457 0.25721464 -0.08530519 -0.16472122
-0.20389053 -0.060677182 -0.048028126 -0.1823724 -0.1329167 -0.038368203 0.21919604 0.1973002
0.17308627 0.04193664 0.052589446 -0.18297212 0.072569475 0.058526948 0.06930845 -0.04696611
-0.032058503 0.2022694 -0.1791985 -0.10749735 0.15564546 0.14055769 0.038065206 -0.05124772
-0.05890055 0.18517016 0.24840719 0.06245394 0.0046947813 -0.117110625 0.013146126 -0.023487851
-0.034273677 -0.10804639 0.067545526 0.056349542 -0.067352064 -0.16803898 0.08673893 -0.08610283
0.2263225 -0.18400241 -0.013407867 -0.09069786 -0.15500182 0.052177973 -0.020940783 0.14124724
0.081069276 0.11427667 0.015388915 0.010778303 0.19932179 0.24392612 0.119186535 -0.17958331
-0.17529081 -0.0054612486 -0.025401974 -0.04559103 -0.023047922 0.15513808 0.15381646 0.23094271

transformer.layers.0.self_attn.in_proj_bias f4 [96]
00000000: fb0c aabd 9314 8ebd 6935 25bd b93f 823d
00000010: 3abb fe3c 28d6 363d 9d98 b2bc 35bd 313d
00000020: baf6 bcbd ae4e 5d3d 7abf 693d 148b 613d
00000030: da5a 96bd 8fc0 4f3c 4043 733d 7853 c0bd
00000040: b0df 9bbd a1d3 c93d 1b9b d93c b765 4d3d
00000050: f636 8ebd 293c cdbc f25f 713d f8be b3bd
00000060: 09d3 c6bd ca5f 853d dc5a 8e3c de56 ffbb
00000070: 6a4b babd 9878 bd3d ee31 a7bd 0846 9dbd
00000080: e0e2 42ba 292a a0ba bbfc d5b9 7562 203a
00000090: 6b68 db38 9bd0 7d3a 16bf d0b8 24c2 8f3a
000000a0: 74a7 d339 29dc a539 9607 c339 32a6 b13a
000000b0: 3d28 40ba 9168 3439 0bac 323a 9dcc 86b9
000000c0: 0030 9c33 b680 f439 9642 18b8 86c8 b939
000000d0: ae87 c8b9 59c2 97b9 0e5c 9939 1beb 89b9
000000e0: c0e4 58ba 35c0 3b3a 3631 343a 1627 e937
000000f0: 564c 25ba 881f e939 aac8 d1b9 ea49 3cb9
00000100: ee13 733c f63d 7839 bf9c 093c 0918 053c
00000110: cfc6 b83c d4e9 75bc 1981 34bd 5f8a 243b
00000120: 1c1a 62bc 4b3d 5a3d bc8d 773d 2cce 83bc
00000130: 8a20 e1bb 8a06 f1bb db2b 52ba ebb4 2c3c
00000140: 2316 a4bc fd10 983c 0fb2 273c 6620 943b
00000150: 93b1 843d c353 6fbb 2871 8e3c 0b16 ac3b
00000160: 6275 0abd e863 a83c e945 b1bc ea7f 6cbd
00000170: 4c42 0f3d d15b 513c dd0e bdbc d460 9a3c
-0.08303257 -0.06937518 -0.04033414 0.063598104 0.031095136 0.04463783 -0.021801287 0.043393333
-0.09226747 0.054030113 0.057067372 0.055064276 -0.07341547 0.012680187 0.059390306 -0.093909204
-0.076110244 0.09854818 0.026563218 0.05014583 -0.06944077 -0.0250531 0.05892939 -0.08776659
-0.097082205 0.06512411 0.01737731 -0.007792338 -0.09096415 0.09251517 -0.0816382 -0.07679373
-0.00074343197 -0.0012219596 -0.00040814825 0.0006118187 0.00010462183 0.0009682269 -9.9538054e-05 0.0010967893
0.00040369818 0.00031635285 0.0003719895 0.0013553558 -0.0007330215 0.00017205092 0.00068157975 -0.0002571092
7.273047e-08 0.00046635204 -3.6301637e-05 0.0003543535 -0.00038248062 -0.00028945765 0.0002925102 -0.00026305843
-0.00082738325 0.0007162125 0.0006873788 2.7793965e-05 -0.00063056254 0.00044464716 -0.00040013093 -0.00017956612
0.014836295 0.00023674205 0.008399188 0.008123406 0.022555737 -0.015009362 -0.04406843 0.002510689
-0.01380017 0.05328111 0.060437903 -0.016089521 -0.006870334 -0.007355516 -0.0008017399 0.010541181
-0.020030087 0.018562788 0.010235324 0.0045204638 0.06479182 -0.0036518432 0.017387941 0.005251651
-0.03380335 0.020555452 -0.021639781 -0.057739176 0.034975335 0.012778238 -0.023078376 0.018845

transformer.layers.0.self_attn.out_proj.weight f4 [32, 32]
00000000: 87b9 f23c 7dbe 3f3e 5a40 133e d22c 48bc
00000010: d08a c43d 382b bcbc e4c0 e83d 3caa eabc
00000020: a209 013e 7159 6dbd 681b 153e 7ad2 dbbd
00000030: 8161 f13d 2904 36bc 61c2 6c3c 2ca3 903b
00000040: 11a0 32bc acf6 97bc 20af ec3d 66dc 1b3e
00000050: 34d8 bf3d aa94 183b bc02 42bc c78e 673e
00000060: 80dc 9bbc 5b5d 26be 5512 8a3d 5fe9 51be
00000070: 31fd 9a3d 04c8 e73c f6c1 30bd ec3b 073e
00000080: ba48 dbbd 6f56 2bbe 2272 f0bd 873f f93d
00000090: 5e01 58bb 590a e33c 8c74 fe3d 1faf de3d
000000a0: 87f9 143d 57f8 02bb ae1a 143e 4601 19be
000000b0: 6a7f bb3d 979c 7cbd 8061 9abd eb4f b4bd
000000c0: b632 443e cd93 8b3d 1a4b 3a3d c303 ae3b
000000d0: ffc0 973c 3b3a 573d 475d 89bd 6b0f 21bc
000000e0: ee8f ce3d b246 14be c74f 00be 443d 243e
000000f0: 17fe a3bd ae1e 5ebd 0f15 df3d 45cf ddbd
00000100: 985b 4a3e 2b8c 943d c0fc 23bd f608 1e3e
00000110: d277 493d 2a30 3a3e ad64 033d 78a7 83bc
00000120: 0f83 ea3d d0f4 fe3d 9521 f0bd 0804 353d
00000130: d535 b33c ffb6 283d 4042 143e ac0b 40be
00000140: 6729 20be 216a 9bbd b4cb d03d 38f5 d3bc
00000150: 03fa 21be 12d7 573e 1545 3f3e a76a 713e
00000160: a43e f93d 71b7 e6bd f9d3 09be e622 693d
00000170: 69f6 0dbe cf7b fd3d 9b38 373e 3ca6 7abd
00000180: 1bce c23c 2a3f 11be 730b bf3d 8b48 a83d
00000190: 200e 19be 5d2b e1bd ac19 253e e364 b33d
000001a0: 5833 98bd 0d83 f2bd 3d32 883d 743f 763e
000001b0: b551 783d 7e58 343d 70a7 d8b9 245e 9d3b
000001c0: 72dc 35bd 8aff c33d bffc 0bbe 20e5 bf3d
000001d0: 1b62 0bbe 39c5 2b3d f8f0 09be 4d0c 0dbe
000001e0: 8896 1d3e 78ce 513d ebf7 c63d 73e7 d53d
000001f0: a2e3 42be 9465 16be 112f f6bd 6cc1 f13d
00000200: 93db 09be 7b7a cbbd eade e93c 1dc9 bebd
00000210: d193 bfbd 377c 663d 977b 053d 46c2 5bbb
00000220: 5f50 d03c 1eb5 fcbd a4ad aa3d 5986 59bd
00000230: 6166 253d bade c0bd 37e0 303d 379a 013e
00000240: 0bee d93c 9350 a6bd 56e5 2ebe 6a60 03be
00000250: b7d3 3abe 88ab b2bd 3b9e cebd 6be0 d8bd
00000260: 19bf af3d a956 00bd db0a 963d d4a4 a73d
00000270: 1db1 ca3c ff34 acbd 7587 453e 2ab6 a43c
00000280: a784 ec3c 5cb1 7ebd c2d1 31be 8f28 833d
00000290: 50e0 19be 66c1 4dbe 23e3 2c3e bb25 43be
000002a0: 6364 2cbe 3769 a33d c346 f5bd d19d f5bc
000002b0: 594d e13d 4416 983b 480d edbc 3605 273e
000002c0: 65f9 a7bd d044 0dbe 27f3 8bbc e9b5 3cbe
000002d0: 1576 293e 2f20 dcbc 5121 f93d 71a4 64be
000002e0: c683 073e b26a 81bd a114 fbbd 70f2 f8bc
000002f0: 51be a0bd fa4b a3bd a2e0 1cbe 94c1 53be
00000300: 98fd 2d3d 378c d13d 2167 243e b13c 283e
00000310: 48e2 303e 8659 443e 09b1 b2bd b02d 1d3d
00000320: d242 1f3b 9045 733d 2cce 0bbe 1121 69be
00000330: 19fe 3cbe ad14 12be 2152 f1bc 3d5c 673d
00000340: 7670 b5bd 0acb 153e 36b8 90bb 2bfd bf3d
00000350: bd73 10be 1f5c bcbc d803 b43d 3bb5 4f3e
00000360: 916b cd3d 899c 12be d7d9 01be 31ef eb3d
00000370: b78a 343b 3b95 d93d bc53 0cbd 2fed 29bd
00000380: 9d47 643e e6a6 aa39 46f3 8fbd 2f04 473e
00000390: b87b 02bd 9d24 693e 7f2e cc3d 1c0a 2a3e
000003a0: be16 d63d bcf8 69bd 89c8 e83d 0415 3b3d
000003b0: 9ac7 0ebd 585a 25be 8eb7 95bd 36cb 9abd
000003c0: 694b 0abe 1cd6 903d 6498 313e 2192 303e
000003d0: 8947 e1bd 9538 0a3e 5482 ba3d 367c 98bd
000003e0: cc33 e13c f1b1 013e 8cf9 25be 3816 96bd
000003f0: ab8c 383e f821 cf3d cbef cc3d d4d8 a3bd
0.029629482 0.1872501 0.14380017 -0.012217717 0.09596789 -0.022969827 0.11364916 -0.028645627
0.12601331 -0.057946626 0.14561236 -0.107335046 0.117861755 -0.01110939 0.01445064 0.004413983
-0.010902421 -0.01855024 0.1155684 0.15220794 0.09367409 0.002328197 -0.011841472 0.22613059
-0.019026041 -0.1624655 0.06741778 -0.2049918 0.07567824 0.028293617 -0.043153726 0.13206452
-0.10707231 -0.1673219 -0.11740519 0.1217032 -0.00329598 0.027714895 0.12424573 0.108732454
0.03637078 -0.0019984448 0.14463302 -0.14941892 0.09155162 -0.061672773 -0.07538128 -0.08804306
0.1915997 0.068153 0.04548178 0.005310507 0.018524645 0.052545767 -0.06707244 -0.009830336
0.10086046 -0.14480093 -0.12530433 0.16038996 -0.08007448 -0.054228477 0.108926885 -0.10830549
0.19761503 0.072532974 -0.040035963 0.15433106 0.049186535 0.18182436 0.032078434 -0.016071066
0.11450779 0.12449038 -0.11725155 0.044193298 0.021876255 0.041190144 0.14478397 -0.18754452
-0.15640794 -0.07588602 0.10195103 -0.025873765 -0.15818028 0.21078137 0.18678696 0.23575841
0.12170151 -0.112654574 -0.13459767 0.056918047 -0.1386353 0.1237713 0.17892687 -0.06119369
0.02377992 -0.14184251 0.09328356 0.082169615 -0.14946795 -0.10994599 0.16123074 0.08759477
-0.07431668 -0.11841402 0.06650207 0.24047643 0.060624797 0.044029705 -0.0004132348 0.004802482
-0.044399686 0.095702246 -0.13670634 0.09369874 -0.13611643 0.041936133 -0.13470829 -0.13774224
0.15389454 0.051222295 0.09715255 0.10444536 -0.19032148 -0.14687186 -0.12020696 0.118044704
-0.13462667 -0.09935471 0.028548677 -0.09315703 -0.093543656 0.056270804 0.032588568 -0.0033532544
0.025428949 -0.12339233 0.083339006 -0.05310664 0.04038084 -0.09417482 0.043182578 0.12656485
0.026602766 -0.08120837 -0.17079672 -0.12829748 -0.18244825 -0.08724123 -0.10088774 -0.10589679
0.08581371 -0.031332646 0.07326289 0.08185735 0.024742657 -0.08408546 0.19289954 0.020106394
0.028871847 -0.06218086 -0.17365173 0.0640422 -0.15026975 -0.20093307 0.16883521 -0.19057362
-0.1683517 0.079790525 -0.11976387 -0.02998248 0.11001081 0.004641326 -0.028936997 0.16310582
-0.08201865 -0.13795781 -0.017083718 -0.18428768 0.16548951 -0.026870815 0.12164558 -0.22328354
0.13233861 -0.06319179 -0.12259794 -0.03038904 -0.078488 -0.07973476 -0.15320066 -0.20679313
0.042478174 0.10231822 0.16054966 0.16429402 0.1727382 0.19174775 -0.08725173 0.03837365
0.0024301303 0.05939251 -0.13652867 -0.2276652 -0.18456306 -0.142657 -0.029458107 0.05648445
-0.08859341 0.14628235 -0.004416491 0.0937446 -0.1410665 -0.022993146 0.08789796 0.20283978
0.10030282 -0.14317526 -0.12680756 0.115202315 0.00275485 0.106241666 -0.034259543 -0.04148596
0.22292943 0.00032549276 -0.070288226 0.1943519 -0.03185627 0.22767873 0.09969806 0.16605419
0.104535565 -0.057121977 0.11366374 0.04567434 -0.034858324 -0.16147745 -0.07310401 -0.07558291
-0.13505329 0.07072088 0.17343289 0.17243244 -0.109999724 0.13498147 0.09106889 -0.07445566
0.027490519 0.12665536 -0.16208476 -0.07328457 0.1802241 0.10113901 0.100066744 -0.08000341

transformer.layers.0.self_attn.out_proj.bias f4 [32]
00000000: a985 9c3a 160a d7ba 1f27 6bbd 7dd7 66bc
00000010: 43cc 32bd 869f 4b3c cd16 74bb fa63 80bc
00000020: ae78 463c 3b57 0abc 80f5 153d 0957 cabc
00000030: 72bb 843c a2ce e6bc 38c0 ed3c 51df 993c
00000040: f47a 253d 0736 453a e7b2 b23c dd8e 023d
00000050: cf0e bebc 109d 40bd 669c aa3c 8140 9b3c
00000060: 7125 74bc 8139 833c c6f8 213c 3da8 0e3c
00000070: dc39 803b 9bc0 2b3b 7505 9ebc d2b2 1cbc
0.0011941689 -0.0016406204 -0.057410356 -0.014089462 -0.04365183 0.01242817 -0.0037245036 -0.015672673
0.012113733 -0.008443649 0.03661108 -0.024699705 0.016202662 -0.028174702 0.029022321 0.018783243
0.04040046 0.00075230043 0.021813823 0.031874526 -0.02320042 -0.047024786 0.02082653 0.018951656
-0.014901505 0.016018631 0.009885972 0.008707103 0.0039131474 0.002620733 -0.019289711 -0.009564118

transformer.layers.0.linear1.weight f4 [64, 32]
00000000: 3d7a 9d3c ec00 08be bb04 47be ec7e f43c
00000010: 81d4 f2bd 8d0f d8bd 6fef 063e fca7 4f3d
00000020: 64f0 53bd 522c 383d e642 7dbd e465 cd3c
00000030: efa3 74bd 77cb c13d 4f89 083e 6d54 fb3d
00000040: 3a83 833d 5880 0f3e 698c b33d 2d8a 93bc
00000050: e9c0 89bd bf89 2bbc 67c3 c33d c21a 533e
00000060: 07ad 1ebe 4ec3 43be 4fc7 c43d 33dd bcbd
00000070: d08e 113e 481a 063e 38fd 773e 9b53 53be
00000080: 91aa 8e3d ceab 77bd 1d56 e63d e975 353e
00000090: e4f2 9a3d 9a50 e5bd 07d3 ef3c 69aa 37be
000000a0: b11d 113e 0d01 14be 327e 633d 3636 293c
000000b0: f2f9 463d f4be 29be 126d 0c3e d227 26be
000000c0: d112 bebd b2f1 f13d 4de8 f1bd c352 e73b
000000d0: a4a0 d73b fee9 273d 6531 813d f56c 4b3d
000000e0: fb21 4ebd 8f5c 2f3e bc9c 49be 0ec8 ab3d
000000f0: 5c3c 013e cf62 983d a01a 6a3e f9ca 963d
00000100: 5946 3fbd 46b3 e43c 6068 6b3d eca1 db3d
00000110: 52d6 c13d e271 f3bd ff3c 8e3d b2e6 b3bd
00000120: 330e 00be bf8c f7bd 1e0f 193d 3781 ebbb
00000130: fd1f 02bc f653 9f3d c279 86bb a257 393e
00000140: e844 0e3e 962b 4abe 1a7d acbd d32a 9abd
00000150: 6378 193e 00cd 073c c5da 03be e0c7 86bd
00000160: b6a4 0ebd c549 183e 50c2 3e3e 705d b13d
00000170: 7daf e0bd 3ed2 0ebd 76fb 25bd c3c5 f6bc
00000180: a210 853d c416 3fbe cd46 843d be8e ba3b
00000190: 51b1 0b3d 67f0 173e f576 a13d 31c6 cfbd
000001a0: fc7f 97bd ed96 793d 67fe 913a 0cce f0bd
000001b0: 5029 0c3d 1d0d 0fbe 3e34 b63d 85b3 66bd
000001c0: 3a1d 1abe cbb5 8b3d 2c1f bc3c 8426 2ebc
000001d0: ee3a 703d b5eb 2f3e bd73 1a3e 1312 863d
000001e0: 1779 70bd 66e4 d13d 20eb c4bc a54c 2fbe
000001f0: 418b abbd 6e6c b83c 2a3a 703d 0014 b0bd
00000200: e548 94bc d5d9 fa3d bfc6 323e 769a 20bd
00000210: 1a1f bebd f3ef aa3d af9e 8fbd a2c6 e03d
00000220: e2d2 573e 919f e9bd d7ba 79bd 98b7 f43d
00000230: dc9b e03d 6b99 b1bc a35c 253c 4b97 053d
00000240: eb57 f6bd 9c17 d8bc c678 373e 6e25 41be
00000250: 1fd1 183e d72e 233e bb62 40be d590 ea3d
00000260: 6846 19bd 3e14 0fbe 4093 773d 40af 2bbe
00000270: 69bd 3c3d d715 99bc 15a5 0a3e c661 ef3c
00000280: 93d2 6a3d 5c1e 3b3e 1d42 013e 96a5 923d
00000290: 9b87 e13d 63a6 b23d 16a4 d2bd e362 eebc
000002a0: 726c ff3c 64da 433d 8c04 40be 4495 563d
000002b0: d639 c13d 7bbe 3d3e 7ce7 e2bd e4c0 14be
000002c0: 99f4 a7bc d439 fa3c 5ae7 e23d c140 e53c
000002d0: df60 c6bb 1005 e9bb 1706 01be 156e 483d
000002e0: 7242 603d 9fb9 0ebe 02d1 94bb 46bf 2ebe
000002f0: 4abb 063e e53b 75bd b0dc 05bc 1c28 483e
00000300: d7fa 503e c61e a43d 52e4 343e e13e 083e
00000310: e15e c2bd 9629 94bd 35ff bd3d 155e a93d
00000320: bb8b 023d f6a5 4ebd 8e2a 53be 851f 1a3e
00000330: f8f6 603d 3869 783e 0ffd 32be 8ae6 e8bd
00000340: 3efc 52bd 4a56 043e a2c6 fdbd ad26 74be
00000350: 198d 663e 8d2d 3f3d d502 12be 4013 8cbc
00000360: 74e5 703e 9979 51be 5b00 dfbb fce9 eebd
00000370: cc06 983d 3bfc 88bb 415f 50bd 9e89 a2bd
00000380: 3ed0 7c3d c2a2 4b3d 82ce b43d 3a02 0dbd
00000390: a7e3 ccbd 03b2 37bd 4844 f3bd 8b80 10be
000003a0: dd05 88bd 8975 e0b9 a923 1e3c 53b8 4c3e
000003b0: d9aa 4f3d d330 213e a7aa 813d dda5 de3d
000003c0: 9c14 403d 3d8d 08be 2299 19be 359e a03c
000003d0: 7a20 8dbd 4a69 98bd bb84 0a3e 2249 60be
000003e0: 18d5 98bc b248 10be dd02 33bd 3b8f c4bd
000003f0: 6401 3a3e f200 0c3d 0d4c 1ebe dc92 e5bd
0.019223327 -0.13281602 -0.19435398 0.029845677 -0.11856938 -0.10549841 0.13177274 0.05069731
-0.051742926 0.044964142 -0.061831377 0.025073 -0.05972665 0.09462636 0.13333629 0.12271962
0.06421514 0.14013803 0.087670155 -0.018010223 -0.06726248 -0.010469853 0.095587544 0.20615676
-0.15495692 -0.19117472 0.096083276 -0.09221878 0.14214635 0.13095963 0.24217689 -0.20637362
0.06966127 -0.06046658 0.112468936 0.1772076 0.07565859 -0.11197014 0.02927543 -0.179361
0.14171483 -0.14453526 0.05554027 0.010327866 0.04857821 -0.16576749 0.13713482 -0.16226128
-0.09280933 0.11813678 -0.11811886 0.0070594265 0.006580429 0.040994637 0.063082494 0.049664456
-0.050325375 0.17125152 -0.19688696 0.08387767 0.12620682 0.07440721 0.22861719 0.07362933
-0.046697948 0.027917515 0.057472587 0.107242435 0.094647065 -0.11886956 0.06945228 -0.08784236
-0.12505417 -0.12087392 0.037367932 -0.0071870345 -0.007942197 0.07779686 -0.00410387 0.18099836
0.13893473 -0.19743189 -0.08422299 -0.07527699 0.1498733 0.008288622 -0.12876423 -0.06581092
-0.03482505 0.14871891 0.18628812 0.086604 -0.10970972 -0.03486847 -0.040523015 -0.030123597
0.06497313 -0.18661028 0.06458817 0.0056932857 0.03410465 0.148378 0.078840174 -0.10145224
-0.07397458 0.06093495 0.001113844 -0.1175805 0.034219086 -0.13969846 0.08896683 -0.056323547
-0.15050212 0.06821784 0.022964083 -0.0106293 0.05864995 0.17179759 0.15083213 0.06546416
-0.05870923 0.10248642 -0.024037898 -0.17119081 -0.0837617 0.02251264 0.05864922 -0.08597565
-0.018101165 0.122485794 0.17458628 -0.039209805 -0.09283276 0.08346548 -0.07012688 0.10975386
0.21076539 -0.11407388 -0.0609692 0.1194908 0.10967228 -0.0216796 0.010092887 0.032614987
-0.12028488 -0.026378445 0.17917165 -0.18861935 0.14923523 0.15935837 -0.18787663 0.11453406
-0.03742066 -0.13972566 0.060443163 -0.16766071 0.046079073 -0.018687172 0.13539536 0.029221427
0.057329725 0.182733 0.12622876 0.07160489 0.11012193 0.08723142 -0.10285203 -0.029099887
0.03117964 0.047815695 -0.18751734 0.052388445 0.094348595 0.18529694 -0.110793084 -0.14526707
-0.020502375 0.030545153 0.11079283 0.027984979 -0.0060540284 -0.007111199 -0.1259998 0.048933107
0.054750867 -0.13937996 -0.0045415172 -0.17065153 0.13157383 -0.059871573 -0.008170292 0.1954655
0.20408188 0.08013682 0.17665222 0.13305236 -0.09490753 -0.072344944 0.092771925 0.08269898
0.03187154 -0.05045124 -0.20621702 0.15051086 0.054923028 0.24258888 -0.17479347 -0.11372097
-0.05151009 0.12923542 -0.12391402 -0.23842879 0.22514762 0.0466743 -0.14258893 -0.017099023
0.2352503 -0.20456542 -0.0068054623 -0.11665723 0.074231714 -0.004180459 -0.05087209 -0.07936405
0.061722033 0.049715765 0.08828451 -0.03442595 -0.10004359 -0.0448475 -0.11878258 -0.14111535
-0.06641743 -0.0004281218 0.009652057 0.19992189 0.050700042 0.15741281 0.063313775 0.1087148
0.046894655 -0.13335128 -0.14999822 0.019606689 -0.0689096 -0.07441957 0.13527195 -0.21902898
-0.018656299 -0.14090231 -0.043703903 -0.095976315 0.18164593 0.03418059 -0.15458699 -0.11209652

transformer.layers.0.linear1.bias f4 [64]
00000000: 82f7 3dbd 29d7 093e 818e 0fbe 7842 c63d
00000010: 166f a1bd e672 cbbd 8750 92bd d361 ae3d
00000020: 08be 7f3d 1b8b 03bd 932a 4e3d 7b4d e5bd
00000030: c1b4 f93d d925 97bc e824 0dbd dc5f a33d
00000040: 9173 e83c 1e4c 2e3e 0213 e23d f69c 303c
00000050: cb6b 1e3e aeea d4bd dfa4 88bd 0ed3 0f3e
00000060: ed2a 2dbd 5e67 d6bb 73fb 883d 6c53 973b
00000070: 7723 ec3d 12b1 4bbd 0d3b 4a3d 13fb 193e
00000080: 4c84 9f3d 1ff7 443e e83c bf3d 45f4 ad3d
00000090: bc18 1ebe b95e 2c3e bc74 c4bd c4bb bdbd
000000a0: 8d9c 3cbc b7cc e7bd 4ac4 fbbd 780c 053c
000000b0: bf31 953c f9be 143d 20c4 1fbd dda7 f8bd
000000c0: e359 3abd 36cd 493e 1853 81bd 69ee 09be
000000d0: 1bad 2e3e 766a 88bc d508 1dbd 5923 3b3d
000000e0: 2c8c 533e b2e9 633c 0a04 d83d 86a4 243e
000000f0: 2ad3 153d f55c d33d e271 c1bd 41ce f13d
-0.04637862 0.13460983 -0.14019205 0.09680647 -0.07882516 -0.099340245 -0.071442656 0.08514752
0.062437087 -0.032115083 0.05033357 -0.11196419 0.12192679 -0.018450664 -0.034459025 0.07977268
0.028375419 0.17021224 0.11038782 0.01077961 0.15470807 -0.10396324 -0.06672072 0.14045355
-0.042277265 -0.006543084 0.06688585 0.004618099 0.11530202 -0.049729414 0.04937272 0.15037183
0.077889055 0.19234894 0.09337789 0.08493856 -0.15439123 0.16833009 -0.09592578 -0.09264329
-0.011511934 -0.11318343 -0.122932985 0.008120649 0.018212197 0.03631494 -0.0390054 -0.121413924
-0.04549588 0.19707188 -0.06314677 -0.13469853 0.17058222 -0.016652327 -0.0383385 0.045688007
0.2065894 0.013910698 0.105476454 0.16078386 0.036578335 0.103204645 -0.094455495 0.11806918

transformer.layers.0.linear2.weight f4 [32, 64]
00000000: b930 4bbb 8f45 35be c760 87bc 8048 8b3d
00000010: 911e bfbb 6366 a4bc dc8e 38ba c4ad 3c3e
00000020: 0cc6 fbbc d955 d1bc 00a4 b6bc c7fe 1cbd
00000030: d8ca 023e 7f0a c23d f617 2ebe 1364 a9bd
00000040: 8278 febd 7890 2abc 06d0 cebc fc4e 173e
00000050: 3bd3 e03d 6938 ad3b aaf9 99bd 151e 2a3d
00000060: 526b c23d 495f 953d 0005 743c fde1 a1bd
00000070: 6f5a 8c3d 6ecd 49bd 26e9 c23a 36e1 a1bc
00000080: a8c0 b0bd 7390 a6bd e41e 063c 35c7 9ebd
00000090: a7ea 7abd cb22 d6bd 8ab1 dcbd 268c ffbd
000000a0: 2770 bc3d c339 4e3d 2553 f3bd 7aee 223e
000000b0: 4cd8 29bd cd84 89bd e95d 2bbe 05b3 823d
000000c0: c508 2f3e 2924 e63d 5d2c 283e eafe 05bc
000000d0: 5e38 e3bd f687 00bc 0f75 57bc c858 973b
000000e0: 92e3 783d a953 1fbd 1dc6 ea3c 85de 163e
000000f0: 2ebb 2bbe c0a6 773d 766a 61bd badf 063c
00000100: a749 af3a f1e6 17be e374 67bd 29ce 713c
00000110: cbf3 1fbb bae5 00be 1f24 6f3d a03d 20bd
00000120: a8d4 a43d 5b5e 9dbd 7e14 633d 9586 56bd
00000130: 2f06 863d 3b88 47bd 9f5b b2bd b806 ae3c
00000140: a84c d53d 1c33 d2bd 3e65 21be f8cb 36bc
00000150: e55c b33d ec6d d7bd c0ea 0cbe 18c4 d5bd
00000160: b012 49bd 4ed1 e33d 5001 743d 6b17 88bd
00000170: c730 613d 2a8d ac3d bc0b 0fbe dfad 133e
00000180: 38cc ea3d 93ce 5a3c fa66 c8bd d5c0 c2bd
00000190: 8622 da3c c4c0 083d 4e1f 3dbd 8e5e 753d
000001a0: dd7a b13c 3151 053d 4e98 5cbd 4f9f ed3d
000001b0: 7437 8dbc e6f7 a1bc 84cd 273c e199 423d
000001c0: 5c61 b03d b2fc d4bc bc41 2d3e b29e a7bd
000001d0: 1536 fe3d a892 be3d 3af3 8abd 2360 5a3d
000001e0: 6ebe 093d ad4f fbbd 6d64 e03d 1619 813d
000001f0: cb80 f8bd b71d e53c d246 54bb d8aa 233e
00000200: a862 f2bc e1f0 b0bd 81e7 e0bb f14b 3fbc
00000210: ab64 343c 61d8 e9bd a1bc 0cbe f284 59be
00000220: bab1 b4bb 0558 f2bd 0706 a0bd 2883 eebd
00000230: db49 0cbe 86fe febd 8635 f1bd 2e6f 1abe
00000240: 6056 5cbd a186 aebc c60f 31be cb14 f33d
00000250: 4277 f5bc 319a 8ebd f5c4 ebbd c9cb 633c
00000260: 1567 473d c7a9 f33d ac5a 2abe 38fc 3c3d
00000270: 02ac 013d 7f4a 1c3d 52eb 2cbe bf57 d03d
00000280: e073 c5bc 31f9 75bd 1b48 51bd 3d65 933c
00000290: 572e 3f3d 5b67 a3bd 2471 843d efc0 8abd
000002a0: 80bc 34bd e3d6 373d 02d8 603c ea56 adbd
000002b0: 63af 26be cf10 9a3c c775 5a3d 24bb 53bc
000002c0: b8fb 3a3e 5bf4 f5bd d131 cbbc c2a7 b6bd
000002d0: 9760 f6bd d139 693d 0864 8dbc 63f1 523d
000002e0: 7349 e8bd 4367 03bd d9fb 0bbe 88eb 9cbc
000002f0: 2af1 e0bd 86ad cc3b d659 c2bd 1252 093d
00000300: 5795 02be fcc8 e33d fa28 03be 23be 90bd
00000310: 1bca c9bc 85ef 493d 320f c83b ad91 b3bd
00000320: b121 debd 07fa 923d 5b7e c8bc 9db4 133d
00000330: 8a2e bd3c 6da5 f5bd 3c05 54bd e486 9dbd
00000340: 4cf9 31bd 2ef7 c13d aa3a da3d 8cec 32be
00000350: e9e0 353c 9327 1f3d f13c e73d c998 e2bd
00000360: 6dbc 48bd f676 83bd 667b 343b db2d c43c
00000370: 457e f53c b143 0ebe 75e3 d13d 5d61 7d3d
00000380: 7f47 f53d e41b d6bd acda 8ebd dea1 e1bd
00000390: 8f64 1fbd 699b 0d3d 2321 2b3d b2ef 003e
000003a0: 62c5 8aba f256 ccbd ee58 c3bc 2f72 fc3c
000003b0: 549d adbd 7cee 3b3d 9964 ac3d a54c e0bd
000003c0: 498c 0d3d 79eb c1bd b9ba a4bd 8926 903d
000003d0: 6d42 ea3d d08e b1bb a6af 3a3d b2f8 ee3d
000003e0: 100d bdbd d3e9 f43c 7a03 313c 09aa 16be
000003f0: 9368 b13c fb9d 02be d7e2 39bd 9943 d33c
-0.0031004383 -0.17702316 -0.01652564 0.06800938 -0.005832501 -0.020068353 -0.00070403307 0.18425661
-0.030734085 -0.02555363 -0.022294998 -0.038328912 0.12772691 0.09474658 -0.17001328 -0.08271041
-0.12425329 -0.010410421 -0.025245678 0.14776224 0.10977789 0.0052862656 -0.07518323 0.041532595
0.09493126 0.07293565 0.01489377 -0.07904432 0.06853186 -0.04926818 0.0014870509 -0.01976071
-0.08630496 -0.0813302 0.008186076 -0.077528395 -0.06125894 -0.10455855 -0.107760504 -0.12477903
0.09201079 0.050348055 -0.11881093 0.15911284 -0.041466042 -0.06714783 -0.16735043 0.063818015
0.17093189 0.11237366 0.16423173 -0.008178452 -0.110947356 -0.007844916 -0.013150468 0.004618738
0.060763903 -0.038898144 0.02865892 0.14733322 -0.16770622 0.06046176 -0.05503317 0.0082320515
0.001337339 -0.14834191 -0.056507956 0.014758625 -0.0024406787 -0.12587634 0.058384057 -0.03912127
0.080483735 -0.076840125 0.055439465 -0.05237444 0.06544148 -0.048713904 -0.087088816 0.021243438
0.10415012 -0.102636546 -0.15761277 -0.011157028 0.087579526 -0.10519013 -0.13761425 -0.104377925
-0.049090087 0.11123906 0.059571564 -0.066450916 0.05497816 0.084253624 -0.1396932 0.14421795
0.11464733 0.013354915 -0.09785266 -0.09509436 0.02662779 0.03338696 -0.046172433 0.059904628
0.021665031 0.032548133 -0.053856187 0.11602651 -0.017238356 -0.019771527 0.01024187 0.04751003
0.0861232 -0.0259994 0.16919607 -0.081845656 0.12412659 0.09305316 -0.06784673 0.05331434
0.033628874 -0.12271056 0.10956655 0.06303613 -0.1213394 0.02796827 -0.0032390845 0.1598314
-0.029588059 -0.08639694 -0.006863535 -0.011675821 0.011010329 -0.11418224 -0.13743831 -0.21242121
-0.0055143507 -0.11833195 -0.078136496 -0.1164611 -0.13700049 -0.1245089 -0.11777787 -0.15081474
-0.05379331 -0.02130443 -0.17291173 0.118692 -0.029964093 -0.069630034 -0.11512176 0.013903567
0.04868229 0.11897617 -0.16636151 0.046138972 0.03165818 0.038156983 -0.16886643 0.10172986
-0.024103105 -0.0600521 -0.051094156 0.01799261 0.046675052 -0.07978698 0.06466892 -0.067750804
-0.04412508 0.044882666 0.013723375 -0.08463843 -0.16277842 0.018806843 0.053334977 -0.012923036
0.18260086 -0.12009498 -0.024804028 -0.08918716 -0.12030142 0.056939904 -0.017259613 0.051499736
-0.11342134 -0.0320809 -0.13670291 -0.019155279 -0.109834984 0.0062462715 -0.09489791 0.033525534
-0.12752281 0.11122319 -0.128086 -0.07067516 -0.024632504 0.04930069 0.006105327 -0.0876802
-0.1084627 0.07176595 -0.024474313 0.036060918 0.02309348 -0.11994443 -0.051762804 -0.07691744
-0.04345064 0.09470974 0.106557205 -0.17473048 0.011100986 0.0388561 0.112909205 -0.11064298
-0.04900782 -0.064191744 0.0027539372 0.023947647 0.029967437 -0.1389301 0.10248462 0.06186043
0.119765274 -0.104545385 -0.06975302 -0.11017202 -0.03891426 0.03457204 0.04177965 0.12591437
-0.0010587389 -0.09977521 -0.023846116 0.030816166 -0.084772736 0.045881733 0.08417625 -0.10952119
0.034557614 -0.09468741 -0.08043427 0.070386 0.11438451 -0.005418636 0.045577668 0.116685286
-0.09231007 0.029896652 0.0108040515 -0.14713301 0.02165631 -0.12755577 -0.045382347 0.025789069

transformer.layers.0.linear2.bias f4 [32]
00000000: a0cb d33c 9f61 e0bd 459a bdbd f2b1 33bc
00000010: f182 533d 5c36 b4bd 5984 983d e8e3 a8bd
00000020: 150f 31bd af6c d33c 8d1f 52bc 9798 963d
00000030: 0448 95bd 71f8 0cbe 6bac 52bd 7f48 103e
00000040: d4aa 8e3d 53c9 88bd 1d4f e13d 8834 2d3c
00000050: a721 373c 092f 8fbd b8c3 5abd 60b1 583d
00000060: 081b 86bd 4647 a3bd 030e 9bbd bfa3 87bc
00000070: 8c80 b53d efb2 53bd d606 b23d 0593 e0bd
0.025853932 -0.1095612 -0.0925794 -0.010967718 0.051638547 -0.08799431 0.07447118 -0.08246595
-0.043227274 0.02580866 -0.012824905 0.07353323 -0.072891265 -0.13766648 -0.05143396 0.14090155
0.06966177 -0.066790245 0.11001418 0.010571606 0.011177457 -0.06991393 -0.05340931 0.052903533
-0.065481246 -0.07972579 -0.07571032 -0.016557572 0.08862409 -0.051684316 0.0869271 -0.10965542

transformer.layers.0.norm1.weight f4 [32]
00000000: 3311 833f fcb2 763f aaa8 6f3f eeea 7f3f
00000010: dd20 773f ef62 833f fb22 783f 6da2 853f
00000020: dea4 7a3f 6d85 853f 71e8 733f b233 803f
00000030: 2240 813f 4dd9 7e3f 1dbf 813f e439 863f
00000040: 7748 7b3f 2b3f 803f f309 813f 10ca 783f
00000050: 5111 7c3f 1e2e 753f d56b 773f 6261 803f
00000060: 4f54 813f 2b01 823f 36b8 873f 1ee7 803f
00000070: f585 7f3f 4a9e 7b3f c451 873f cc27 863f
1.0239624 0.9636686 0.93616736 0.9996785 0.9653452 1.0264567 0.96928376 1.0440193
0.9790782 1.0431343 0.9527655 1.0015776 1.0097697 0.99550325 1.0136448 1.0486417
0.9815745 1.0019277 1.0081161 0.9718332 0.9846392 0.95773494 0.96648914 1.0029719
1.0103854 1.0156606 1.0603092 1.0070531 0.9981378 0.98288405 1.0571828 1.0480895

transformer.layers.0.norm1.bias f4 [32]
00000000: b245 52bb ace8 51bb 68be 85bd 06de 0fbc
00000010: ebc6 3bbd 75ee 3f3c 68e5 d7bb 9194 c3bc
00000020: ca5b 253c 06ce 6bbc 4095 123d 5654 febc
00000030: fbc8 743c 77b1 1ebd 227b 053d a983 763c
00000040: fa56 193d 53ba bd3a 83d6 b73c 0eda 1b3d
00000050: 206e 05bd ecce 32bd f089 923c 5029 cb3c
00000060: f6d5 a9bc 6908 a53c 45ba 843b 662e 493c
00000070: 7180 9d3b 94cf 98ba b88f 35bc 79c7 04bc
-0.0032084999 -0.0032029552 -0.06530458 -0.008780962 -0.045844 0.011714567 -0.0065886267 -0.023874553
0.010092685 -0.0143923815 0.035786867 -0.031046074 0.014940496 -0.038743462 0.03258813 0.015046039
0.037436463 0.0014475085 0.022441154 0.03804975 -0.032575727 -0.043654367 0.01788804 0.024799973
-0.020731907 0.020145612 0.0040505254 0.012279129 0.004806571 -0.0011658543 -0.0110816285 -0.008104199

transformer.layers.0.norm2.weight f4 [32]
00000000: 2e4d 883f c1ca 783f 97ea 813f facb 8a3f
00000010: 0d00 7e3f e0f5 883f 4bff 8a3f 888b 8c3f
00000020: a1c7 8c3f f435 8c3f 3835 893f 416b 873f
00000030: cd9a 7c3f 7af1 823f 9809 873f 0e38 883f
00000040: 697a 853f b529 843f 24a7 863f eaf2 883f
00000050: cc19 843f ec2c 853f 4460 823f 5d4f 883f
00000060: 9fdd 7d3f 3931 893f 9773 8b3f 9a9f 863f
00000070: fb8f 7c3f e434 873f 7313 803f 19a4 893f
1.0648553 0.9718438 1.0149716 1.0843499 0.9921883 1.0700035 1.0859159 1.0980082
1.0998422 1.0953965 1.0719366 1.0579606 0.9867371 1.0229943 1.0549803 1.0642107
1.0427982 1.0325228 1.0519757 1.0699131 1.0320373 1.0404334 1.0185628 1.064922
0.9916629 1.0718147 1.089465 1.0517457 0.98657197 1.0563016 1.0005935 1.0753204

transformer.layers.0.norm2.bias f4 [32]
00000000: 8b42 3bba 8f12 9c39 f79c 17bb 169d 903a
00000010: 3aa6 91ba 293f e93a cd0f e2ba 3f3a e0ba
00000020: 7cc1 2b3b b656 c5ba 1b36 5fba dca9 b4ba
00000030: bc26 993a 59f1 58bb 43e6 c53a 3741 8bba
00000040: ef30 6dba 3a36 4739 ad25 ec3a e2b0 9f3b
00000050: 9c7c 50bb 07a6 5b3a b2b2 2cba 6c25 c63b
00000060: 107b adba a879 fd3a b53d f5ba 24e4 fe3a
00000070: 9167 4eba e281 d9ba e133 9b38 50a6 893a
-0.00071433996 0.00029768466 -0.002313433 0.0011033143 -0.0011112161 0.0017795312 -0.0017247141 -0.0017107202
0.0026207855 -0.0015055749 -0.0008514837 -0.0013783532 0.0011684517 -0.0033102839 0.001509853 -0.0010624294
-0.0009048124 0.0001899832 0.0018016599 0.004873381 -0.0031812554 0.0008378927 -0.0006587907 0.0060469415
-0.0013235528 0.0019338625 -0.0018710407 0.0019446653 -0.0007873709 -0.0016594494 7.400639e-05 0.0010501835

fc.weight f4 [2, 32]
00000000: e367 f4bd 8da2 84bc 966d e5bd 14db 603d
00000010: 9583 813d af67 433e ccfa 7abe 2802 88be
00000020: bba0 7cbc 51a5 83be 1666 91bc f91e 3ebe
00000030: 7235 eb3d 6322 24be 84e1 633e ab2f 59be
00000040: 730b 5ebe 9b4c f93d 032a 423c 3eb2 4f3e
00000050: 1406 efbd e29c 2a3e d2f1 8fbd 7fc8 ebbd
00000060: 6ac2 e6bd a837 cf3d 89a9 18be c23d 2cbd
00000070: c104 07be 8f69 16be edcb 6ebc 9263 4b3e
00000080: a703 1e3e e02f 313d 8841 44bd 21e0 c6bd
00000090: 9e6b f53d 2383 34bd 9220 163c f7d2 813d
000000a0: 32c3 30be a752 8b3d 83cc 4e3e 1af9 923d
000000b0: 1b97 b03d 5ebb ccbd 2f6b 0d3d e51d 143e
000000c0: 15a0 403e 24c7 94bd 69a0 30be 904e d03d
000000d0: 26a4 17bd fe82 9fbd 71be 9a3d 5d46 4dbe
000000e0: e0d3 b0bd 16d3 fabd d076 2e3e ce14 4fbe
000000f0: 8297 92bd b9e4 8f3d 1918 bebd 22dc 74be
-0.11933877 -0.016190792 -0.112025425 0.05489643 0.063239254 0.19082521 -0.24509734 -0.26564145
-0.0154191805 -0.25712064 -0.017748874 -0.18566503 0.11484803 -0.16028742 0.22253996 -0.2120959
-0.21684055 0.121728145 0.011850837 0.20282838 -0.11671081 0.16661409 -0.070285454 -0.11512851
-0.1126755 0.101180375 -0.14908423 -0.042051084 -0.13185407 -0.14688705 -0.014574987 0.19862202
0.15431081 0.043258548 -0.047914058 -0.09710718 0.11983417 -0.044070374 0.009163039 0.063390665
-0.17261961 0.06802874 0.20195203 0.071764186 0.08622571 -0.09996675 0.034526046 0.14464529
0.18811066 -0.072645456 -0.17248692 0.101712346 -0.03702178 -0.07788657 0.07555855 -0.20046373
-0.08634162 -0.12247293 0.17037511 -0.2022278 -0.07157804 0.07026047 -0.0928194 -0.23912099

fc.bias f4 [2]
00000000: 61ee 33be f494 933d
-0.17571403 0.07206145
